model/keypoint_classifier/keypoint_classifier.tflite (tflite, 6600 bytes, 6 tensors)

arith.constant f4 [5, 10]
-0.03276094 0.31351373 0.64828676 0.7339433 -0.4909458 0.9702182 0.86398053 -0.44590896
0.5952228 -0.3074732 0.34993622 0.7385848 0.6586982 0.20441794 -0.32558206 -0.4952197
-0.6523784 0.74209505 -0.74722123 -0.92248225 -1.1161544 0.7758217 -0.9081711 -0.9518364
0.79360193 -1.1018041 -0.051923133 -0.49689928 -0.31733695 0.47857305 0.5912906 -1.4444095
-0.14700457 -0.41415492 -0.6789878 0.572681 -0.021821419 0.13630912 0.70544124 -0.824385
0.62905306 -0.4897628 0.15038007 -0.26135397 0.27595 0.70459443 -1.1063511 -0.6802614
0.7652155 0.65679
00000000: 5630 06bd df84 a03e 1ff6 253f b5e3 3b3f
00000010: 3f5d fbbe 3860 783f d42d 5d3f 2e4e e4be
00000020: 8560 183f 216d 9dbe d72a b33e e513 3d3f
00000030: 72a0 283f f052 513e b1b2 a6be 708d fdbe
00000040: 4502 27bf f1f9 3d3f e449 3fbf cc27 6cbf
00000050: 26de 8ebf 409c 463f e77d 68bf 8dab 73bf
00000060: 7f29 4b3f eb07 8dbf 5aad 54bd 9569 febe
00000070: fd79 a2be 8707 f53e d25e 173f 69e2 b8bf
00000080: 5e88 16be 1d0c d4be 25d2 2dbf 399b 123f
00000090: d5c2 b2bc 9e94 0b3e cc97 343f e50a 53bf
000000a0: 9f09 213f 31c2 fabe 3cfd 193e 30d0 85be
000000b0: 5249 8d3e 4d60 343f ea9c 8dbf 9c25 2ebf
000000c0: 2ae5 433f 6423 283f

arith.constant1 f4 [10, 20]
-0.07212183 0.72113526 0.5712328 -0.0055177263 0.7140484 1.0542396 0.4179394 -0.02863419
0.2626586 0.07244784 0.34040847 0.047952026 0.13407981 0.10923627 0.0769285 -0.8736713
-0.099499315 -0.17830689 0.044736642 -0.5089628 0.3171548 -0.099639416 0.07409956 0.4699963
-0.10753755 -0.078731604 0.5140638 1.3309897 0.4804809 0.83236355 0.43150645 0.4200056
1.0883002 1.4168758 0.7122989 0.9790118 0.9329236 1.4837022 0.82825536 0.74822176
-0.3213569 0.20772867 0.43912232 1.1878954 0.31376103 0.12508366 0.6163573 0.45084053
0.07367159 -0.01978165 0.32483417 0.07492738 -0.096495435 0.08321077 0.43523312 0.47098416
-0.02420297 0.15406431 -0.065819934 0.3164953 0.7266016 0.24957135 -0.018462075 0.61042744
0.18667239 0.19808869 -0.11723854 0.1447626 -1.0038246 0.091219775 0.0056149657 -0.15528107
-0.28223613 0.1969079 -0.42905194 0.49877664 0.0319125 -0.0060064634 0.4824054 0.7114539
-0.48803222 -0.96004915 -0.38722035 -0.6835334 -1.6092721 -0.71178854 0.52232605 -0.08125601
-0.68658805 0.3191445 -0.12191861 -1.0032998 0.04315683 0.41823313 -0.07553409 0.0682326
0.31939158 0.33981615 0.31197187 -0.42492047 -0.24426481 0.79161066 -0.4230699 0.4808633
0.7126431 -0.6651784 -0.17397252 -0.1816824 0.6160511 0.21944247 0.864083 0.7587927
-0.10166925 0.05719954 -0.11536903 0.06660766 0.2440746 -0.07429603 0.24194142 0.39726925
0.8165918 -0.0994512 -0.07931611 0.15094307 -0.046756353 0.41561452 -0.006925784 0.17264672
0.42290863 0.30258748 0.017746864 0.4391516 -0.3976807 0.12744762 -0.13125522 -0.12009336
0.2570195 0.86287546 0.20267871 0.5931666 0.19095172 0.3493731 0.31840715 0.25139916
0.3064224 -0.34180316 0.045298975 -0.6142129 0.021244764 0.30135342 -0.2643904 0.44773817
0.60397834 0.17224067 1.060214 0.19648336 -0.07977366 -0.5793165 0.60775805 0.30208787
0.21802232 0.47031707 0.71371144 -0.08648912 0.46665278 0.3330711 0.499617 0.060122706
0.5382745 -0.90346503 0.68172264 -0.7636947 -0.5282561 -0.27046454 -0.36674342 -0.033055022
-0.92648894 0.4004515 -0.2738808 0.07741754 0.06364059 -0.46166974 -0.028871313 0.15512021
-0.8803295 -0.10384262 0.16640957 0.03468607 0.19619262 0.5781134 0.45568812 -0.4892384
0.04861011 -0.16795947 -0.16564097 -0.326458 -0.45542315 0.11781947 -0.100649 -0.26922166
00000000: 9cb4 93bd 529c 383f 503c 123f 0bce b4bb
00000010: e0cb 363f 53f1 863f 27fc d53e 4092 eabc
00000020: 307b 863e 885f 943d 054a ae3e 5869 443d
00000030: 384c 093e 44b7 df3d b08c 9d3d eca8 5fbf
00000040: 4cc6 cbbd 1596 36be c53d 373d 634b 02bf
00000050: 1d62 a23e c00f ccbd 83c1 973d 5ba3 f03e
00000060: a63c dcbd 093e a1bd af99 033f df5d aa3f
00000070: 9801 f63e c715 553f 6aee dc3e f90a d73e
00000080: 6c4d 8b3f 305c b53f 3959 363f 84a0 7a3f
00000090: 15d4 6e3f f4e9 bd3f 8b08 543f 768b 3f3f
000000a0: e488 a4be d3b6 543e a4d4 e03e f50c 983f
000000b0: 49a5 a03e ee15 003e 98c9 1d3f 92d4 e63e
000000c0: 21e1 963d 200d a2bc aa50 a63e 8773 993d
000000d0: 669f c5bd 686a aa3d e0d6 de3e d624 f13e
000000e0: 4f45 c6bc 09c3 1d3e 9acc 86bd ac0b a23e
000000f0: 9002 3a3f a28f 7f3e c73d 97bc f944 1c3f
00000100: 0c27 3f3e c3d7 4a3e c21a f0bd a63c 143e
00000110: 537d 80bf 6fd1 ba3d bffd b73b 0002 1fbe
00000120: 4181 90be 39a2 493e b2ac dbbe a75f ff3e
00000130: aeb6 023d ded1 c4bb d7fd f63e d821 363f
00000140: 5cdf f9be c8c5 75bf bf41 c6be 0bfc 2ebf
00000150: a1fc cdbf c637 36bf 29b7 053f 8d69 a6bd
00000160: 3cc4 2fbf e866 a33e 77b0 f9bd 216c 80bf
00000170: 37c5 303d a722 d63e 9eb1 9abd 89bd 8b3d
00000180: 4b87 a33e 62fc ad3e c7ba 9f3e 2d8f d9be
00000190: 8e20 7abe ffa6 4a3f 9e9c d8be b733 f63e
000001a0: c76f 363f 2249 2abf da25 32be f30a 3abe
000001b0: 86b5 1d3f 87b5 603e 8b34 5d3f 3d40 423f
000001c0: f837 d0bd 114a 6a3d 9946 ecbd 9969 883d
000001d0: b1ee 793e 8428 98bd 7ebf 773e e066 cb3e
000001e0: 290c 513f 12ad cbbd 7c70 a2bd d290 1a3e
000001f0: 9783 3fbd 6dcb d43e b0f1 e2bb 4dca 303e
00000200: 7b87 d83e bfec 9a3e df61 913c 7ad8 e03e
00000210: ce9c cbbe a181 023e c567 06be 82f3 f5bd
00000220: 0f98 833e 68e5 5c3f 028b 4f3e c4d9 173f
00000230: d988 433e 08e1 b23e 4306 a33e 64b7 803e
00000240: 66e3 9c3e d300 afbe 6b8b 393d 0e3d 1dbf
00000250: 8009 ae3c ff4a 9a3e 2e5e 87be f03d e53e
00000260: 539e 1a3f dc5f 303e 18b5 873f ef32 493e
00000270: 5f60 a3bd 164e 14bf 0896 1b3f 43ab 9a3e
00000280: 3e41 5f3e 66cd f03e cbb5 363f 3521 b1bd
00000290: 1ded ee3e 4c88 aa3e cdcd ff3e 3a43 763d
000002a0: 5ccc 093f 7c49 67bf 6085 2e3f 7f81 43bf
000002b0: cb3b 07bf 547a 8abe cbc5 bbbe b464 07bd
000002c0: 612e 6dbf fb07 cd3e 1b3a 8cbe 168d 9e3d
000002d0: ff55 823d fa5f ecbe 8883 ecbc d5d7 1e3e
000002e0: 465d 61bf 71ab d4bd 4567 2a3e fb12 0e3d
000002f0: b8e6 483e 3dff 133f f44f e93e 757d fabe
00000300: 651b 473d 91fd 2bbe c99d 29be 8125 a7be
00000310: 392d e9be 564b f13d 1021 cebd 6cd7 89be

arith.constant2 f4 [5]
-0.6538144 0.12767506 0.76825094 0.23476176 -0.38842452
00000000: 6160 27bf 40bd 023e 18ac 443f 6365 703e
00000010: 94df c6be

arith.constant3 f4 [10]
0.07015093 0.564973 -0.47597367 -0.43795097 0.40623465 -0.2116547 0.22358069 0.22621495
0.18726265 -0.31686613
00000000: 4aab 8f3d 12a2 103f d2b2 f3be 1c3b e0be
00000010: fdfd cf3e 02bc 58be 56f2 643e e4a4 673e
00000020: c8c1 3f3e 473c a2be

sequential_1_1/dense_3_1/BiasAdd/ReadVariableOp f4 [20]
-0.31850427 -0.5218139 -0.52182275 -0.512874 -0.55289817 -0.31365353 -0.52033526 0.24023628
-0.429529 0.316307 -0.36643416 -0.37572756 -0.62595636 -0.312143 -0.87773585 -0.49417958
0.5519354 -0.17835501 -0.5309061 -0.47837558
00000000: fe12 a3be 9995 05bf 2d96 05bf b64b 03bf
00000010: bc8a 0dbf 3297 a0be b134 05bf 8000 763e
00000020: 3aeb dbbe fef2 a13e 429d bbbe 5d5f c0be
00000030: ad3e 20bf 35d1 9fbe 4cb3 60bf 1b05 fdbe
00000040: a34b 0d3f b2a2 36be 76e9 07bf a5ed f4be

sequential_1_1/dense_3_1/MatMul f4 [20, 42]
0.17422849 0.27006 -0.23447186 0.17393504 -0.16916484 -0.36942983 -0.2603093 -0.31378382
-0.33618775 -0.43754014 -0.112921454 0.26386115 -0.025306895 0.031051556 0.12610051 -0.122315064
0.106165186 -0.034278035 -0.17607848 0.105300486 -0.08820899 -0.12049178 0.083453394 0.27113497
0.43146715 0.81430626 -0.2275703 0.1994158 0.026665447 -0.19740039 0.26136208 0.26774743
0.06716151 0.951606 -0.23610431 0.10202177 -0.041661445 -0.24830286 -0.042902242 0.32085112
0.26749736 1.1017706 -0.26586682 0.09958643 -0.061981864 0.27915084 0.042624924 0.24997525
0.083699405 0.031361897 0.120448515 0.054544427 0.030689714 0.008200073 -0.07008454 0.07538934
0.022162624 0.1099646 0.039035834 0.11497461 0.07442576 0.05325092 0.06445533 -0.049243957
-0.2918592 -0.07355896 -0.6162738 -0.44080803 0.12510265 -0.0009968859 -0.048945043 -0.06306283
-0.2727157 -0.28289118 -0.5055348 -0.50388306 0.2044135 -0.03815374 0.14664099 0.03258097
0.0639646 -0.042947635 -0.34172148 -0.1441739 -0.30953228 0.24270189 -0.25013497 0.03148158
-0.11010828 -0.2375154 -0.20287232 -0.15823899 -0.8305029 -0.06978328 0.09253604 0.15891053
0.037830316 0.047949493 0.14520718 0.14038791 0.13691671 0.15216358 0.028997412 0.017055167
-0.11284622 -0.06665086 -0.013173179 -0.18539035 -0.058179643 -0.2686072 -0.04591412 0.0331017
0.0743612 -0.08251507 0.11149289 -0.15910247 0.14774734 -0.27848193 -0.30975896 -0.027743751
-0.07419524 -0.10445969 0.18962738 -0.18770885 0.37892938 -0.22385725 0.008038163 -0.039399594
0.4847735 0.42646164 0.23491715 0.06040373 0.5738462 -0.019969363 0.73448145 -0.11443265
0.04526505 0.01551646 -3.0277217e-05 0.035211135 -0.031235453 0.012049677 -0.023928825 0.038923945
-0.05298715 -0.029938856 -0.07409037 0.0035918634 -0.15705705 -0.07564515 -0.25000745 -0.18675487
-0.0012325087 -0.18609117 -0.16079192 0.074270576 -0.2532155 0.06704311 -0.39174488 0.046592385
0.27224582 -0.043966465 -0.07068374 0.09682224 -0.3278978 0.08926763 -0.78558147 -0.0573729
-0.027575195 -0.16848911 -0.10715948 0.5007105 -0.019340243 0.19019704 -0.030241787 0.26938504
0.22659588 0.21394926 -0.074776866 0.048095886 0.0330487 0.01884877 0.07343735 0.079375066
0.0975838 0.06647147 0.0805089 -0.1176186 0.015367862 0.10655714 -0.08285211 -0.0849809
-0.2669989 -0.20254791 0.08700952 0.0015940202 0.05826837 0.016676035 -0.21313831 -0.3863242
-0.7263466 -0.57000166 0.12877952 0.056915767 0.026973039 -0.040980194 -0.3005897 -0.28547412
-0.20101437 -0.48977172 0.21637952 0.12883043 -0.1516082 0.22848746 -0.103421 0.3131066
-0.1999818 0.4534038 -0.14768822 0.42394155 0.11433973 0.07374498 0.011174868 -0.009348773
-0.0061149606 -0.048071355 0.029128391 -0.0634865 0.12776506 0.12101064 0.084610134 0.08152406
-0.0632772 -0.21293014 0.18385266 -0.5294534 0.09092116 0.13757573 -0.011960681 0.081523634
0.11511174 -0.3009612 0.2461029 -0.43691236 0.09250837 0.15431458 -0.17694789 0.05351589
-0.25600594 -0.32050127 -0.29991797 -0.68764246 -0.08367765 0.259184 0.80684954 -0.38384342
00000000: f468 323e 4e45 8a3e 6419 70be 071c 323e
00000010: 8c39 2dbe e825 bdbe 4347 85be 46a8 a0be
00000020: cd20 acbe 4305 e0be 5d43 e7bd cf18 873e
00000030: 6850 cfbc d55f fe3c 7e20 013e 5280 fabd
00000040: 226d d93d 2067 0cbd eb4d 34be c8a7 d73d
00000050: eaa6 b4bd 65c4 f6bd 9de9 aa3d 34d2 8a3e
00000060: 43e9 dc3e 6076 503f 3008 69be a833 4c3e
00000070: 7f71 da3c 5423 4abe 40d1 853e 3116 893e
00000080: f98b 893d 739c 733f 54c5 71be caf0 d03d
00000090: 31a5 2abd 1b43 7ebe 43ba 2fbd 9946 a43e
000000a0: 6af5 883e d206 8d3f b21f 88be f8f3 cb3d
000000b0: b2e0 7dbd dcec 8e3e 7997 2e3d 83f9 7f3e
000000c0: 986a ab3d 5575 003d b6ad f63d fa69 5f3d
000000d0: ff68 fb3c 9959 063c 7c88 8fbd ba65 9a3d
000000e0: 648e b53c 1f35 e13d 0ae4 1f3d cf77 eb3d
000000f0: 886c 983d a31d 5a3d 2801 843d 08b4 49bd
00000100: 926e 95be 14a6 96bd 1fc4 1dbf 97b1 e1be
00000110: e91a 003e f1a9 82ba 997a 48bd 1627 81bd
00000120: 64a1 8bbe 1dd7 90be bb6a 01bf 7bfe 00bf
00000130: c651 513e 1947 1cbd 0e29 163e a073 053d
00000140: dfff 823d dce9 2fbd 1ef6 aebe 53a2 13be
00000150: 047b 9ebe d886 783e b111 80be d4f2 003d
00000160: 7380 e1bd 3d37 73be c3bd 4fbe 6709 22be
00000170: d79b 54bf 89ea 8ebd 8983 bd3d 71b9 223e
00000180: f6f3 1a3d b066 443d 31b1 143e d9c1 0f3e
00000190: e533 0c3e c5d0 1b3e fb8b ed3c 47b7 8b3c
000001a0: eb1b e7bd 3f80 88bd 51d4 57bc f8d6 3dbe
000001b0: c74d 6ebd e286 89be 7210 3cbd a695 073d
000001c0: af4a 983d a9fd a8bd 6256 e43d c2eb 22be
000001d0: 144b 173e 2f95 8ebe ba98 9ebe dd46 e3bc
000001e0: adf3 97bd f6ee d5bd ae2d 423e c036 40be
000001f0: 0803 c23e d63a 65be 80b2 033c 7861 21bd
00000200: 3b34 f83e 2e59 da3e 1f8e 703e e769 773d
00000210: 96e7 123f ca96 a3bc fa06 3c3f aa5b eabd
00000220: d867 393d c038 7e3c d4fb fdb7 8d39 103d
00000230: 7ee1 ffbc 026c 453c 6206 c4bc b76e 1f3d
00000240: 0e09 59bd 5542 f5bc b1bc 97bd 7865 6b3b
00000250: 90d3 20be d8eb 9abd fa00 80be ab3c 3fbe
00000260: 218c a1ba af8e 3ebe a3a6 24be 2c1b 983d
00000270: 76a5 81be e64d 893d c992 c8be a8d7 3e3d
00000280: ce63 8b3e 2e16 34bd a3c2 90bd bd4a c63d
00000290: 38e2 a7be f2d1 b63d de1b 49bf d9ff 6abd
000002a0: 60e5 e1bc 6988 2cbe 6e76 dbbd 902e 003f
000002b0: 6e6f 9ebc 03c3 423e a0bd f7bc d6ec 893e
000002c0: c008 683e 8415 5b3e 9d24 99bd 3100 453d
000002d0: 135e 073d bc68 9a3c 5266 963d 658f a23d
000002e0: 04da c73d 3222 883d dae1 a43d 05e2 f0bd
000002f0: 7cc9 7b3c a13a da3d 5eae a9bd 770a aebd
00000300: 14b4 88be b868 4fbe 0c32 b23d 71ee d03a
00000310: d0aa 6e3d 2e9c 883c ee40 5abe 49cc c5be
00000320: daf1 39bf a1eb 11bf c7de 033e 8220 693d
00000330: 90f6 dc3c d9da 27bd e5e6 99be aa29 92be
00000340: b6d6 4dbe 5cc3 fabe 9892 5d3e 20ec 033e
00000350: 2e3f 1bbe 9ef8 693e 64ce d3bd 824f a03e
00000360: 07c8 4cbe 8b24 e83e 953b 17be de0e d93e
00000370: f32a ea3d 9c07 973d cb16 373c 992b 19bc
00000380: 0260 c8bb 78e6 44bd aa9e ee3c 3605 82bd
00000390: d8d4 023e 6dd4 f73d 1448 ad3d 16f6 a63d
000003a0: 7a97 81bd 5c0a 5abe df43 3c3e 428a 07bf
000003b0: e034 ba3d a7e0 0c3e bbf6 43bc ddf5 a63d
000003c0: b4bf eb3d 9617 9abe 6602 7c3e fab2 dfbe
000003d0: 0775 bd3d a404 1e3e d431 35be 7a33 5b3d
000003e0: 3613 83be be18 a4be d98e 99be 5609 30bf
000003f0: 305f abbd c4b3 843e b18d 4e3f 2087 c4be
