model/keypoint_classifier/keypoint_classifier.tflite (tflite, 7392 bytes, 6 tensors)

arith.constant f4 [23, 10]
0.19988701 0.21852617 -1.2095097 -1.3774822 1.0125725 -0.7578149 -0.07026179 -0.1875893
-0.42177123 0.49996445 -0.3346134 0.035682894 -0.19379365 -0.018951038 0.42092147 0.28136012
0.037899423 0.2060866 -0.41925517 -2.4119568 0.098673016 0.37616432 -0.26023233 -0.7467622
-0.22314239 -0.1195037 -0.28708178 -0.15200225 0.24145669 0.72329086 0.12823157 0.5447029
-0.6273465 0.31548876 0.38139567 -0.5430975 -0.09147119 0.67652655 -0.4054474 -0.7454948
0.1540247 0.014053795 -0.5060264 -0.21734206 0.53246075 -2.451664 -1.277584 -0.047054183
0.77882254 -0.13749227 0.11419565 0.101595655 -0.80772406 -0.43386668 0.67021644 -0.58956784
-1.7229822 -0.10471209 0.46509287 0.24298035 -0.1692248 -0.30938348 0.43052208 -0.5808198
-0.39375278 0.24931674 -0.88086116 0.858338 -0.04187303 -0.7978627 -1.2805561 -0.7617951
0.5602047 -0.33268088 -2.3317592 0.15649146 -0.56528866 -0.61612445 0.124383286 -0.2180562
0.48250052 -0.21438326 0.1271854 -1.5624042 0.12649606 -0.055624235 -0.06726689 0.30568528
-0.4019301 -0.38022473 0.057001702 -0.44174606 0.39204863 0.0771324 -0.3410585 0.20722643
-0.6347812 -1.734452 -0.13744928 -1.1804352 -1.64526 -0.8668263 0.15945885 0.67670673
0.640755 0.5585651 -0.24066667 -1.6897495 -1.013615 -2.0300007 -1.0655819 -0.21755695
-0.026544148 0.2051633 -0.42108452 -0.37247342 0.6391317 0.4848921 -0.8110479 0.29244992
-0.22868022 -0.47551668 -0.00014525157 0.42560983 -0.4427433 -0.4049454 0.5826078 -0.23205514
-1.0491598 0.4839468 0.313231 -0.5153406 0.32210603 -0.68240505 -0.45398393 0.38681355
-0.9267686 -1.7318 -0.47356513 -0.8038619 0.030104205 -0.71085554 0.545567 -0.5022956
-0.90153235 0.060287323 0.00540242 -1.5890719 0.10145568 -0.12332927 0.34375662 -0.411986
-0.74854875 0.40342245 -0.023193106 -0.08999755 -0.15372844 0.06248663 -1.1529481 0.20026481
-0.10848748 -0.58444285 -0.81084603 0.27320305 0.13945784 -0.5942268 0.0047216755 0.41701472
-0.6067754 0.6454484 -0.1147052 -1.4881308 0.055485047 0.5047813 -0.9356057 -0.49251693
0.7308143 -0.7018328 -0.4060995 0.4281548 0.87020105 -0.21419996 -1.6113757 -1.3681034
0.14439337 -1.9450265 -0.57874596 0.43116066 0.7445754 -0.030611891 -0.56008226 -0.24493651
-0.7978085 0.41770744 -0.67449903 0.30546027 -0.11878583 0.12604783 -0.14894845 0.32366732
-1.3226894 0.8384305 -1.2142279 0.42734563 -0.17221135 -0.45143577 0.47022662 -0.7761604
0.78518945 -0.6849457 -1.2659329 0.040739004 -0.7545606 0.6266301 0.11749436 -0.5081323
0.7270605 -1.43568 0.5800782 -0.47118288 -1.9579678 -0.6108975 -1.2249109 -1.1907414
0.60153127 -2.3642154 0.7266974 0.33170247 0.34119985 0.4046079
00000000: 2eaf 4c3e 53c5 5f3e 37d1 9abf 5651 b0bf
00000010: fa9b 813f 2800 42bf 6ae5 8fbd 6917 40be
00000020: 66f2 d7be 57fb ff3e 7352 abbe 3a28 123d
00000030: d871 46be 353f 9bbc 0583 d73e 6f0e 903e
00000040: 6d3c 1b3d 5e08 533e 9da8 d6be 805d 1ac0
00000050: 1415 ca3d 9c98 c03e 2c3d 85be cf2b 3fbf
00000060: 707f 64be 5bbe f4bd 62fc 92be 7aa6 1bbe
00000070: 6c40 773e 9729 393f 234f 033e a671 0b3f
00000080: c899 20bf be87 a13e 4b46 c33e 7008 0bbf
00000090: 3f55 bbbd d830 2d3f cd96 cfbe bfd8 3ebf
000000a0: a7b8 1d3e e341 663c f28a 01bf eb8e 5ebe
000000b0: 594f 083f 10e8 1cc0 df87 a3bf e3bb 40bd
000000c0: ea60 473f c6ca 0cbe 69df e93d 6211 d03d
000000d0: 01c7 4ebf c623 debe 4e93 2b3f ebed 16bf
000000e0: ae8a dcbf 4b73 d6bd a720 ee3e d7cf 783e
000000f0: 4449 2dbe 8367 9ebe 646d dc3e 9bb0 14bf
00000100: f799 c9be e34c 7f3e 1e80 61bf 0abc 5b3f
00000110: 0e83 2bbd bb40 4cbf 43e9 a3bf 0105 43bf
00000120: 9369 0f3f 2655 aabe 8b3b 15c0 4c3f 203e
00000130: c2b6 10bf 55ba 1dbf aabc fe3d 204a 5fbe
00000140: 4f0a f73e 4987 5bbe e43c 023e dcfc c7bf
00000150: 2f88 013e 3dd6 63bd 39c3 89bd c882 9c3e
00000160: c8c9 cdbe d1ac c2be 9e7a 693d 8a2c e2be
00000170: 99ba c83e 97f7 9d3d 389f aebe 2a33 543e
00000180: 0581 22bf 8602 debf 81bf 0cbe 8018 97bf
00000190: e197 d2bf 54e8 5dbf 2e49 233e a73c 2d3f
000001a0: 8508 243f 1ffe 0e3f 5371 76be b649 d8bf
000001b0: 23be 81bf 88eb 01c0 fd64 88bf 40c7 5ebe
000001c0: 1d73 d9bc 5416 523e 6498 d7be d6b4 bebe
000001d0: 239e 233f c743 f83e d6a0 4fbf ffbb 953e
000001e0: 262b 6abe ec76 f3be ac4e 18b9 88e9 d93e
000001f0: 40af e2be 0155 cfbe c925 153f dd9f 6dbe
00000200: de4a 86bf e0c7 f73e d05f a03e 5ded 03bf
00000210: 15eb a43e 19b2 2ebf 9570 e8be 6d0c c63e
00000220: b540 6dbf 9fab ddbf 2177 f2be e5c9 4dbf
00000230: 189d f63c a1fa 35bf 47aa 0b3f 7296 00bf
00000240: d3ca 66bf d7ef 763d c906 b13b b566 cbbf
00000250: ffc7 cf3d 0e94 fcbd de00 b03e d4ef d2be
00000260: e4a0 3fbf 638d ce3e 78ff bdbc a350 b8bd
00000270: fd6a 1dbe fbf1 7f3d ce93 93bf 3812 4d3e
00000280: af2e debd 0c9e 15bf 9b93 4fbf 45e1 8b3e
00000290: 09ce 0e3e 3f1f 18bf 49b8 9a3b f482 d53e
000002a0: a255 1bbf 1b3c 253f 8fea eabd 127b bebf
000002b0: 4a44 633d 5939 013f db83 6fbf 2e2b fcbe
000002c0: a516 3b3f 50ab 33bf 46ec cfbe 1b37 db3e
000002d0: 7fc5 5e3f 3c57 5bbe 8f41 cebf 031e afbf
000002e0: dbdb 133e a1f6 f8bf b228 14bf 17c1 dc3e
000002f0: 7e9c 3e3f cac5 fabc 8d61 0fbf a3d0 7abe
00000300: 2e3d 4cbf c0dd d53e f8ab 2cbf 4a65 9c3e
00000310: fc45 f3bd af12 013e f185 18be b9b7 a53e
00000320: e34d a9bf 62a3 563f d26b 9bbf 0ccd da3e
00000330: 2c58 30be 9722 e7be 8bc1 f03e 73b2 46bf
00000340: 2d02 493f 9a58 2fbf 170a a2bf f1dd 263d
00000350: e22a 41bf d56a 203f e2a0 f03d f514 02bf
00000360: a320 3a3f 5dc4 b7bf 0180 143f e23e f1be
00000370: b09e fabf c763 1cbf e1c9 9cbf 376a 98bf
00000380: f4fd 193f 4e4f 17c0 d708 3a3f e8d4 a93e
00000390: bfb1 ae3e c428 cf3e

arith.constant1 f4 [10, 20]
0.060783084 0.02983215 0.7885982 0.22207113 0.16940936 -0.0020761727 0.18630762 -0.20579904
0.38501236 2.4561014 0.52524316 0.048238475 0.73541296 1.5669901 1.342111 0.47498217
0.07463093 1.0775688 -0.20477334 -0.2500441 0.4031737 -1.1721045 0.27510795 1.1481329
0.4583378 -0.9758179 0.24441096 0.12677167 0.5996843 0.59689057 0.60072124 -1.9803756
-0.08135315 -0.32523316 0.12833081 1.2554998 -0.7445418 0.23185046 0.6944529 0.49785614
0.25223938 0.70140976 -2.267878 -0.026370386 0.28757542 0.7788313 0.11980207 -1.2248715
0.111084744 0.2138121 0.15748523 1.4989481 0.12882292 -0.8117348 0.10096967 0.32653704
0.99778444 0.16537309 -0.2158506 0.065036766 0.16898024 0.113000974 -0.11741852 -0.32778156
1.812206 0.19213963 -0.16346106 1.074456 1.7939187 0.20515673 0.38847646 -0.19096395
0.073576294 1.099451 0.32523254 -0.57002956 0.2743777 0.07675742 0.60556686 0.9796019
1.2104887 0.0065463535 0.26678666 1.3343188 0.4320038 0.0019409524 0.9344692 -0.12436844
-0.15677029 0.2951195 1.0584108 -0.026566662 0.2584736 2.1597924 0.1885941 0.39414597
-0.028465249 0.31281447 1.6038947 0.0044986387 1.7531023 0.5058766 1.5764555 -0.087360136
-0.084288456 0.60794044 0.16844916 -0.36303797 0.2989447 0.34876713 1.5794755 -0.10865453
-0.55482507 -0.7195124 0.7973854 0.17939797 0.6022794 0.2675582 0.86937827 -0.018560551
0.18268435 -0.19907248 -0.009672131 0.57946986 0.9149444 -0.10381066 0.45366877 0.88320893
0.775423 1.342822 0.7678737 -0.2124717 1.1463096 -0.7343236 -0.10231711 0.28550327
-0.027304733 0.031052537 2.0015392 0.6642325 0.49376136 -0.90030307 0.524751 -0.41505077
0.2769419 -1.1663618 0.05306831 0.23805727 -0.13500008 0.94391036 -0.19087586 -1.3225262
0.7996743 0.8105367 -0.0029532113 0.5370379 -1.2472917 1.1660267 0.34461322 0.16562593
-0.0560906 0.017046286 0.38231412 2.5923495 -0.15720297 -0.056832913 1.2757584 -0.066248626
0.5577596 0.08213499 0.14135985 -0.37252247 -0.13017255 -0.5909828 0.5679132 0.73861057
-0.1774859 -0.13709033 -0.63140434 0.30692706 0.42616826 0.10336295 0.0040959576 1.3810024
-0.017452454 0.13706449 0.21846537 0.75989157 1.3130499 1.1291205 0.19211619 -1.233049
0.7759081 0.7627912 0.05178171 -0.3376733 0.17973411 0.88045275 0.13189158 2.7577696
00000000: aff7 783d 8e62 f43c 92e1 493f 9d66 633e
00000010: a679 2d3e 6610 08bb 6dc7 3e3e fcbc 52be
00000020: 5720 c53e c430 1d40 5676 063f b595 453d
00000030: 0644 3c3f 2293 c83f 4bca ab3f dd30 f33e
00000040: 1ad8 983d c6ed 893f 1ab0 51be c805 80be
00000050: c96c ce3e 8507 96bf f3da 8c3e 05f6 923f
00000060: 41ab ea3e 34cf 79bf de46 7a3e 6fd0 013e
00000070: e984 193f d2cd 183f dec8 193f f37c fdbf
00000080: 7b9c a6bd f684 a6be 2769 033e 38b4 a03f
00000090: 4b9a 3ebf 356a 6d3e aac7 313f 00e7 fe3e
000000a0: 8525 813e 978f 333f ea24 11c0 b506 d8bc
000000b0: 163d 933e 7d61 473f ca5a f53d 97c8 9cbf
000000c0: 6680 e33d 8ff1 5a3e cf43 213e 88dd bf3f
000000d0: 28ea 033e dacd 4fbf 30c9 ce3d dd2f a73e
000000e0: cd6e 7f3f 9057 293e f107 5dbe ff31 853d
000000f0: 2809 2d3e 0e6d e73d 1f79 f0bd fcd2 a7be
00000100: 5ef6 e73f 40c0 443e 5662 27be c687 893f
00000110: 219f e53f 9b14 523e 63e6 c63e 0e8c 43be
00000120: 2baf 963d cfba 8c3f e184 a63e 75ed 11bf
00000130: 3c7b 8c3e ff32 9d3d 6e06 1b3f 31c7 7a3f
00000140: 4bf1 9a3f cb82 d63b 4398 883e f5ca aa3f
00000150: 9a2f dd3e 8e67 fe3a 6039 6f3f e1b4 febd
00000160: 6488 20be e719 973e 017a 873f 54a2 d9bc
00000170: a756 843e 0a3a 0a40 d01e 413e 80cd c93e
00000180: f42f e9bc 3829 a03e 6c4c cd3f 5169 933b
00000190: a865 e03f 2181 013f 4bc9 c93f dfe9 b2bd
000001a0: 6d9f acbd fca1 1b3f f07d 2c3e 1de0 b9be
000001b0: 480f 993e 9b91 b23e 412c ca3f 4486 debd
000001c0: 0409 0ebf f731 38bf 7321 4c3f 1ab4 373e
000001d0: fc2e 1a3f 63fd 883e 938f 5e3f 4c0c 98bc
000001e0: 9b11 3b3e a8d9 4bbe dc77 1ebc 2358 143f
000001f0: cc39 6a3f af9a d4bd 4647 e83e fb19 623f
00000200: 1f82 463f 97e1 ab3f 5f93 443f 2e92 59be
00000210: 46ba 923f a2fc 3bbf a28b d1bd 7c2d 923e
00000220: 2dae dfbc e461 fe3c 3819 0040 240b 2a3f
00000230: 4ace fc3e 437a 66bf 1556 063f 8981 d4be
00000240: 54cb 8d3e 584b 95bf 285e 593d 49c5 733e
00000250: 763d 0abe 1ca4 713f f674 43be 8a48 a9bf
00000260: 74b7 4c3f 557f 4f3f aa8a 41bb 517b 093f
00000270: 41a7 9fbf 5d40 953f 2571 b03e d899 293e
00000280: 42bf 65bd a7a4 8b3c adbe c33e 0ee9 2540
00000290: d1f9 20be a1c9 68bd 0d4c a33f 5cad 87bd
000002a0: 55c9 0e3f 6436 a83d a3c0 103e 44bb bebe
000002b0: f44b 05be a64a 17bf c262 113f 9515 3d3f
000002c0: ddbe 35be 6861 0cbe b7a3 21bf 8b25 9d3e
000002d0: ba32 da3e f4af d33d 6237 863b b0c4 b03f
000002e0: 73f8 8ebc a25a 0c3e 63b5 5f3e 4188 423f
000002f0: 0512 a83f 0587 903f 1bba 443e 8dd4 9dbf
00000300: eaa1 463f 4946 433f 0f19 543d 84e3 acbe
00000310: 380c 383e 5a65 613f 960e 073e 4c7f 3040

arith.constant2 f4 [23]
-0.31728807 -1.6037942 -1.5663233 -1.0403482 0.71698254 0.47262353 0.16900066 0.59278685
-0.45844018 0.6421719 0.8434584 -0.25030878 -0.30499473 0.70356023 -0.25222895 0.60547996
-1.0449632 0.13921538 0.9878386 0.365924 0.4087896 -0.011386893 2.1405392
00000000: 9573 a2be 2149 cdbf 487d c8bf 212a 85bf
00000010: 2b8c 373f b6fb f13e 820e 2d3e e1c0 173f
00000020: acb8 eabe 6165 243f e4ec 573f 7928 80be
00000030: 4528 9cbe 861c 343f 2724 81be bc00 1b3f
00000040: 5bc1 85bf 7a8e 0e3e fee2 7c3f 645a bb3e
00000050: df4c d13e 1790 3abc 98fe 0840

arith.constant3 f4 [10]
-0.0154991755 0.26236293 1.3216144 0.14835262 0.3174649 0.50168 0.5230094 0.9105248
1.3387568 0.59541655
00000000: 41f0 7dbc 6f54 863e a92a a93f c0e9 173e
00000010: c28a a23e 1a6e 003f f2e3 053f 2718 693f
00000020: 625c ab3f 386d 183f

sequential_2_1/dense_6_1/BiasAdd/ReadVariableOp f4 [20]
-0.7572612 0.23234269 -0.6445441 -1.1544149 -1.3371629 0.5016094 0.26319283 -0.923478
-1.2253143 -1.5814694 -0.73713464 -0.1538907 -0.0816326 -1.2197751 -0.007711858 -0.4236431
0.46610934 -0.6544872 -0.9283259 -1.3932532
00000000: dfdb 41bf 3eeb 6d3e d800 25bf dec3 93bf
00000010: 2728 abbf 7969 003f 36c1 863e 0e69 6cbf
00000020: 19d7 9cbf 976d cabf dbb4 3cbf 8695 1dbe
00000030: fe2e a7bd 9721 9cbf c1b3 fcbb c0e7 d8be
00000040: e2a5 ee3e 798c 27bf c4a6 6dbf 1f56 b2bf

sequential_2_1/dense_6_1/MatMul f4 [20, 42]
0.17046875 -0.09641802 -0.13304867 0.10277098 -0.45153296 0.04041658 -1.3693987 0.033536658
-0.947524 0.030823927 -0.081371896 0.19538681 -0.007911951 0.1463439 0.04757305 0.1492698
0.09003604 0.092946194 -0.399835 0.17052689 0.00044343137 0.083490334 0.07990849 0.026180327
0.15941727 0.0015711637 -0.632504 0.14570718 0.15730703 0.004631569 -0.11387435 -0.07506469
-0.18718213 -0.09094608 -0.22151145 0.110934034 1.3033347 -0.15559539 1.3092464 -0.6105874
1.1600581 -0.5393125 0.1485658 -0.0022886992 -0.0056253653 -0.5833437 0.010329834 -0.03180154
0.08641808 0.33181083 0.11382664 0.49698904 -0.4359324 0.041108232 -0.0845598 0.2843548
0.3031128 0.11238072 0.02691015 -0.27816612 -0.04252847 0.3717735 -0.09313176 0.29244247
-0.053293724 0.60868394 -0.09403784 0.2723146 -0.022877913 0.7034936 -0.15681322 0.5529322
-0.33937153 0.8763166 -0.36386672 1.1133932 -0.35942805 1.2021981 -0.029531231 0.25882897
-0.3057716 0.21782248 -0.08388025 0.1573334 0.054873765 0.2473048 0.16353515 0.75562286
-0.020541226 -0.05764026 0.021267327 -0.09812884 0.31987253 -0.07454144 -0.309269 0.032075044
-0.1375142 0.02026086 0.019777518 0.075255506 0.05309283 0.016879726 -0.42353565 0.012835227
-0.011755978 0.049385704 0.1664875 0.21472286 0.228782 0.20596278 -0.6842604 0.013298641
0.10422136 0.020144122 0.08382255 -0.02212408 0.14271641 -0.10440426 -0.37708578 -0.04389233
0.513286 -0.05754477 0.6028046 -0.064584434 0.626622 -2.1747704 0.29678154 -0.1960853
0.2369273 0.55279666 0.13380966 0.17877826 0.0747309 0.11088368 0.006112394 0.03969262
-0.037958387 0.10442244 -0.077002324 0.0899236 -0.074491255 0.12132715 -0.04278978 -2.6457458
-0.12201457 0.07705165 -0.068391494 0.07859792 -0.05036318 0.09083206 -0.021823639 0.03897071
-0.09085183 0.05912393 -0.0699831 0.0937498 0.14030829 0.09988902 0.16270429 0.07824498
0.0297223 0.07852322 0.13566543 0.1308869 0.24691366 0.15142909 0.23009934 0.1214038
-0.22956026 -0.01807636 -0.9147642 -0.7843972 -0.661905 0.059781652 -0.9307165 0.03900576
-0.05658028 0.043834127 0.12108315 -0.030360408 -0.23797323 0.06501273 -0.23911034 0.15421367
-0.09958802 0.12762734 0.25535348 -0.098664284 -0.47375765 0.025948856 -0.36160794 -0.026574824
-0.37286007 -0.03849164 1.1612697 -0.1548801 -0.12672316 -0.018697547 0.12858704 0.030347113
0.1811584 0.022266276 2.2697976 -0.18606272 0.1979176 0.0058934526 -0.009035985 0.07758581
-0.22409159 0.089587815 0.21086389 -0.19145235 0.075583756 -1.1967131 0.11084783 -0.6331429
-0.19727899 -0.52791476 0.0159148 -0.8185958 -0.38910088 0.344819 -0.064594954 0.30242336
0.035764012 0.24417505 0.23813038 0.11653043 -0.17749512 0.3626583 0.049648665 0.36329803
-0.22314003 0.133613 0.014076686 0.07301927 -0.046432257 0.5071291 -0.17262277 0.43311703
-0.31539902 0.31519723 -0.5337317 0.54296464 0.2791204 0.6391955 0.088324435 0.5123231
-0.12783796 0.46933737 -0.34094805 0.3745756 0.20495158 -0.011907846 0.26349252 0.832029
00000000: 5c8f 2e3e d076 c5bd e93d 08be 9779 d23d
00000010: 542f e7be db8b 253d 7548 afbf bc5d 093d
00000020: ef90 72bf 7682 fc3c 4fa6 a6bd 7b13 483e
00000030: 21a1 01bc 2ddb 153e f5db 423d 2fda 183e
00000040: d164 b83d 935a be3d 2cb7 ccbe 9a9e 2e3e
00000050: 5a7c e839 fbfc aa3d 10a7 a33d 2078 d63c
00000060: 483e 233e 81ef cd3a c8eb 21bf 4334 153e
00000070: 1815 213e 6bc4 973b f536 e9bd 84bb 99bd
00000080: acac 3fbe f041 babd e6d3 62be 6231 e33d
00000090: acd3 a63f 6654 1fbe 6395 a73f 754f 1cbf
000000a0: c97c 943f 6210 0abf a221 183e 00fe 15bb
000000b0: fc54 b8bb 0356 15bf 773e 293c 5542 02bd
000000c0: f6fb b03d 1ce3 a93e f11d e93d 5975 fe3e
000000d0: 8832 dfbe 1b61 283d b02d adbd f496 913e
000000e0: 9a31 9b3e dd27 e63d ad72 dc3c ca6b 8ebe
000000f0: 5532 2ebd 1959 be3e ddbb bebd 05bb 953e
00000100: 854a 5abd b6d2 1b3f e996 c0bd d26c 8b3e
00000110: 766a bbbc 2818 343f a593 20be f78c 0d3f
00000120: 1bc2 adbe 4956 603f bd4c babe ab83 8e3f
00000130: f406 b8be a1e1 993f 7beb f1bc 3b85 843e
00000140: 188e 9cbe db0c 5f3e 69c9 abbd 021c 213e
00000150: 50c3 603d 783d 7d3e c275 273e 8070 413f
00000160: 1346 a8bc 3118 6cbd d138 ae3c c6f7 c8bd
00000170: 55c6 a33e 2fa9 98bd 8258 9ebe 1f61 033d
00000180: 86d0 0cbe 1afa a53c 7604 a23c 8f1f 9a3d
00000190: de77 593d 5a47 8a3c aad9 d8be d84a 523c
000001a0: 259c 40bc aa48 4a3d b37b 2a3e 4fe0 5b3e
000001b0: d445 6a3e e8e7 523e b12b 2fbf 8be2 593c
000001c0: 0272 d53d 4905 a53c 28ab ab3d 8f3d b5bc
000001d0: 4024 123e e7d1 d5bd 6311 c1be 72c8 33bd
000001e0: b666 033f 11b4 6bbd 6751 1a3f d844 84bd
000001f0: 4d6a 203f 702f 0bc0 c0f3 973e 96ca 48be
00000200: 129d 723e 1584 0d3f 6605 093e a611 373e
00000210: 840c 993d fc16 e33d 7a4a c83b bb94 223d
00000220: 417a 1bbd 6fdb d53d 65b3 9dbd dd29 b83d
00000230: df8e 98bd 5e7a f83d 5644 2fbd e653 29c0
00000240: c6e2 f9bd 41cd 9d3d d710 8cbd f2f7 a03d
00000250: 9f49 4ebd 2906 ba3d 7dc7 b2bc c09f 1f3d
00000260: 8610 babd ef2b 723d 4d53 8fbd e5ff bf3d
00000270: faac 0f3e 9d92 cc3d f49b 263e e73e a03d
00000280: 2e7c f33c c8d0 a03d e1eb 0a3e 3707 063e
00000290: efd6 7c3e 3a10 1b3e 299f 6b3e 8ea2 f83d
000002a0: d811 6bbe e014 94bc fd2d 6abf 41ce 48bf
000002b0: 9b72 29bf 9bdd 743d 7043 6ebf 81c4 1f3d
000002c0: b9c0 67bd 6a8b 333d 71fa f73d 64b6 f8bc
000002d0: 41af 73be 6525 853d 57d9 74be 30ea 1d3e
000002e0: cef4 cbbd beb0 023e b1bd 823e 8010 cabd
000002f0: 5d90 f2be b292 d43c ad24 b9be 72b3 d9bc
00000300: 84e7 bebe 69a9 1dbd 7ca4 943f e498 1ebe
00000310: b7c3 01be 992b 99bc 52ac 033e 829a f83c
00000320: 9681 393e c467 b63c 5d44 1140 3a87 3ebe
00000330: e9aa 4a3e dd1d c13b ab0b 14bc 4fe5 9e3d
00000340: 4478 65be d179 b73d b4ec 573e 160c 44be
00000350: a8cb 9a3d e52d 99bf 3004 e33d a715 22bf
00000360: 8103 4abe 6c25 07bf c15f 823c 7f8f 51bf
00000370: 3b38 c7be 1e8c b03e 5c4a 84bd 3cd7 9a3e
00000380: 497d 123d 0609 7a3e 73d8 733e 82a7 ee3d
00000390: 48c1 35be 59ae b93e 665c 4b3d 3302 ba3e
000003a0: d27e 64be d9d1 083e e7a1 663c 218b 953d
000003b0: c02f 3ebd 36d3 013f 06c4 30be 84c1 dd3e
000003c0: fb7b a1be 8861 a13e a4a2 08bf bbff 0a3f
000003d0: dee8 8e3e 51a2 233f 71e3 b43d 9b27 033f
000003e0: f4e7 02be fd4c f03e be90 aebe 5fc8 bf3e
000003f0: d4de 513e 2019 43bc 7ee8 863e daff 543f
