model/keypoint_classifier/keypoint_classifier.tflite (tflite, 7408 bytes, 6 tensors)

arith.constant f4 [23, 10]
000000 18 72 0c 3f 60 49 b3 be d2 5c d1 3e 00 69 db 3e
       0.54861593 -0.35016918 0.4089113 0.42853546
000010 58 4c 8b 3d 67 db 0d bf 9a e9 38 3d 77 4b 8e 3d
       0.06801671 -0.55412906 0.045144655 0.069479875
000020 0c 2b 06 bf 7b 23 ba bf a2 01 09 be 00 ca 8b bf
       -0.52409434 -1.4542078 -0.13379529 -1.092102
000030 1b aa 37 bf 1c 9e 2a be fe fd a7 3f ce c9 3e 3f
       -0.71743935 -0.16661876 1.3124387 0.7452668
000040 5b 83 87 3f 28 e4 26 bf 52 74 81 bd 8e da cd bf
       1.0586962 -0.6519189 -0.063210145 -1.6082323
000050 6b ec 53 3f 1b e9 35 bf cb 7d 71 3e 59 50 1e be
       0.8278262 -0.71058816 0.23583142 -0.15460338
000060 d2 c2 6c 3e a3 ec 12 bf d9 8c 5d bf c4 12 5e 3e
       0.23121193 -0.5739233 -0.8654304 0.21686846
000070 0c 0a 14 3f 9b 53 d6 bf 8c 6e 49 3e eb 5a 9a be
       0.5782783 -1.6744264 0.19671077 -0.3014749
000080 15 65 e9 3e 6f e7 7e bf da e2 0f 3f 8c 15 87 3f
       0.45584932 -0.9957189 0.56205523 1.055345
000090 15 0c ac 3e ed 78 12 bf f9 97 c3 bc 10 3d a5 bf
       0.33602968 -0.5721577 -0.023876177 -1.290926
0000a0 17 06 44 bf 58 16 8e bf 3c 5f 50 bd aa 3d d3 be
       -0.7657179 -1.1100569 -0.050872073 -0.41257983
0000b0 ce 0c 1e c0 3f 01 ab bd 41 fd fd bf 14 58 69 3f
       -2.4695315 -0.08349847 -1.9842912 0.9115002
0000c0 d7 70 dd be 4f ca dc be 6f 17 dc be f0 85 92 be
       -0.43250152 -0.431231 -0.42986628 -0.2861781
0000d0 3c 33 d1 bb ff 81 39 3f fb e6 84 bf f8 9d 58 bf
       -0.0063842814 0.72463983 -1.038299 -0.8461604
0000e0 80 83 9d bf f3 9b 9f 3e 2f c2 3e 3f ef ff 37 bf
       -1.2305756 0.31173667 0.7451505 -0.718749
0000f0 96 c4 93 bf 2a cf 16 bf 6b 06 cb 3e c7 58 0d be
       -1.1544368 -0.5890986 0.39653334 -0.13803397
000100 ef a2 ef 3e 50 bc 10 3f d8 82 26 3e 20 e2 a2 bf
       0.46803996 0.5653734 0.1626085 -1.2725258
000110 b6 a9 04 3f 96 1f 8f 3e d0 a8 f6 bf 0d bd b5 3e
       0.5182146 0.27953786 -1.9270267 0.35495797
000120 0a 14 12 c0 75 95 5f be 8d 5f 3d 3f 4c 08 95 3e
       -2.282473 -0.21834357 0.73973924 0.29107893
000130 a3 62 d0 3e 95 c1 4e bf 3f 2b d2 be 0f 38 12 3f
       0.40700254 -0.8076413 -0.4104862 0.5711679
000140 e0 1b 13 3e 51 d0 03 bf af 3c 2d 3f bd eb be 3e
       0.14366102 -0.5148974 0.6767072 0.3728923
000150 29 8c c8 3e d7 8f 31 3f c6 be 9d bd c4 86 a7 bf
       0.39169434 0.6936011 -0.07702403 -1.3088002
000160 7d 93 18 3e 54 28 b3 bf b5 8c 23 c0 55 0e cd be
       0.14900012 -1.3996682 -2.555463 -0.40049997
000170 42 d6 1d c0 17 7c 4e 3e fa be 3d bf 1a 70 34 bf
       -2.4662023 0.20164524 -0.7411953 -0.70483553
000180 3c 6c b0 3e 29 54 59 bf ad 29 90 3e c5 8b 17 3f
       0.34457576 -0.84894043 0.28156796 0.59197646
000190 f3 b7 de bf 47 d0 d3 bf 8a 80 13 c0 8b ba 06 3f
       -1.7399887 -1.6547936 -2.3047204 0.5262839
0001a0 fd 55 e0 bf a8 d9 46 bf 7c a3 75 3f 9d 20 10 3f
       -1.7526242 -0.7767587 0.9595258 0.56299764
0001b0 d5 22 cd be 98 ee 21 3d 3e 1a b8 3e ca a2 1f 3f
       -0.40065637 0.03953418 0.3595752 0.6235777
0001c0 51 56 3c bf df 8f 28 bf 3a f3 f4 3d 87 be 64 3e
       -0.7356921 -0.6584453 0.11960454 0.22338305
0001d0 0a d9 2f 3e 7c 32 3c be 3a c5 60 bf ce cf a2 bd
       0.17172638 -0.18378633 -0.87800944 -0.07949792
0001e0 c2 44 17 3f 76 53 01 3f 61 62 36 bf 95 3b cb be
       0.5908929 0.50517976 -0.71243864 -0.39693895
0001f0 4f b5 b3 3e 62 5f 6e bc 25 19 61 be 7b 81 82 3e
       0.35099265 -0.014549108 -0.21982248 0.2548941
000200 04 b6 18 be c8 f9 a1 3e e6 43 3c c0 95 88 22 3d
       -0.14913183 0.3163588 -2.9416442 0.039681036
000210 7c f3 26 c0 ce 6b 01 3f 58 ef 8c bf 8c 70 1b bf
       -2.608611 0.5055512 -1.1010542 -0.6071861
000220 78 4e af 3e d9 b1 81 bf ba cb ee 3e b8 8d 63 3e
       0.34239554 -1.01324 0.46639806 0.2222203
000230 57 d8 01 c0 be 28 d6 3e ff 26 1f c0 02 76 5c bd
       -2.0288293 0.4182796 -2.4867551 -0.05382348
000240 28 37 03 3f 5d 6d 04 3f 8b bf bb 3e a0 c1 4d bf
       0.51256037 0.51729375 0.36669573 -0.80373573
000250 f4 f1 c1 3e b9 bd 7e 3d 1f 67 1c 3d 44 ff 6f 3e
       0.37879908 0.062192652 0.03818428 0.2343722
000260 48 cd 0b 3f e4 cb 8a bf 30 31 08 bd e0 61 14 bf
       0.5461011 -1.0843472 -0.033250034 -0.57961845
000270 4a 33 b9 3e 63 1c 2c bf 47 3f a0 3d bd 3a a0 bf
       0.36171943 -0.67230815 0.07824569 -1.2517926
000280 d6 9f 48 3f bf 98 ef 3e 2f 56 32 3e 06 f1 37 bf
       0.7836889 0.46796224 0.17415689 -0.7185215
000290 81 a9 c8 bc e3 ad 2c bf 41 fe 5b be ad fc 03 3e
       -0.024494888 -0.6745283 -0.21483709 0.12889357
0002a0 ab 5b 4f bf aa 9d 84 be 9e e8 69 3e b1 aa 27 3f
       -0.8099925 -0.25901538 0.22842643 0.6549483
0002b0 47 d6 dd bf 94 b4 27 bf 1c 67 8f be 61 17 98 3d
       -1.7331017 -0.65509915 -0.28008354 0.07426334
0002c0 8a c4 90 bf 0c 55 b8 3c 0d 88 8c 3c 08 af 11 3f
       -1.1309979 0.022501491 0.017154718 0.569077
0002d0 86 af ba 3e 50 6b 8e bf fd a6 53 3f f3 cf 2f 3f
       0.3646204 -1.1126499 0.8267668 0.6867668
0002e0 1b ee cd bf 81 b4 2b be 16 ac 4f c0 9e cd 35 be
       -1.6088289 -0.16768076 -3.2448783 -0.17754218
0002f0 30 18 a1 be 63 51 8e bf c2 0e 80 be 0d 96 e4 3e
       -0.31463766 -1.1118587 -0.2501126 0.4464573
000300 e3 3f f2 be 82 2b 90 bf a2 5a 46 3e 97 6b 2b bf
       -0.47314367 -1.1263278 0.19370511 -0.66961044
000310 36 f8 17 3e 52 3c cf be 68 a9 e7 3e 00 b0 42 bf
       0.14840779 -0.40475708 0.45246434 -0.76049805
000320 09 ba 3e be a0 d2 53 b9 dd 4b 6e bf b5 e4 33 be
       -0.18625654 -0.00020200992 -0.9308451 -0.17567714
000330 e6 81 23 bf 50 e6 4a be ec 89 d0 be e4 40 6e 3f
       -0.63870084 -0.1981442 -0.40730226 0.93067765
000340 4b 6b 41 be 17 ef cb be a7 a0 f0 be 50 b4 0f 3e
       -0.18888585 -0.3983085 -0.46997568 0.14033628
000350 6f 10 8f bf 8a 4a 38 bf b3 f2 68 bf 7b 6c 5a be
       -1.117689 -0.7198874 -0.9099533 -0.21330445
000360 5c 58 d1 bd 9e 12 69 3f a8 4f 88 bc 4c 84 86 be
       -0.10221931 0.9104403 -0.016639546 -0.2627281
000370 f8 fd c4 be 47 fb 96 3d 6a 60 6f be ab e2 8a bf
       -0.38475013 0.07372146 -0.23376623 -1.0850424
000380 80 73 58 c0 b7 54 37 bf b5 9f 5f bf c3 98 87 3f
       -3.3820496 -0.7161364 -0.8735307 1.0593494
000390 35 96 4c c0 be 1d 1a bf
       -3.196668 -0.6020163

arith.constant1 f4 [10, 20]
000000 27 5c 50 3f af 29 98 bf 8d d1 64 be 03 58 e7 3f
       0.81390613 -1.1887721 -0.22345562 1.8073734
000010 2a db 08 40 7c 24 d0 3f 18 35 06 3e d8 c4 15 3e
       2.1383767 1.6261134 0.13106191 0.14625871
000020 47 f3 57 bf e1 07 04 bf 76 dc ac be de 02 67 3c
       -0.84355587 -0.5157452 -0.33761948 0.014099805
000030 2f 08 16 be f4 cd 60 3f b9 35 99 3e 18 b3 d0 3e
       -0.1465156 0.8781426 0.299238 0.40761638
000040 3e 27 9f 3f bb 3d 17 3d 37 a7 7e be d3 f9 71 bf
       1.2433851 0.036924105 -0.24868475 -0.94521827
000050 63 fe 40 3e e8 55 4e bd fc 79 b5 3e ad e8 ee 3e
       0.18847041 -0.050374895 0.3544463 0.46661893
000060 fb 74 00 3f b6 c1 29 3e 18 e5 06 bd 7f 64 b9 3f
       0.501785 0.16577801 -0.032933325 1.4483794
000070 6b 84 8a 3e 15 e2 56 be 1b 38 95 3c 62 6f 2d 3e
       0.27054152 -0.20984681 0.01821523 0.1693702
000080 f7 3c 9a 3e 85 64 29 3f 7e f5 75 3c 4a 22 80 3d
       0.30124637 0.66169006 0.015012143 0.0625654
000090 ea 6e 33 3f ce ba 97 3f 4b 57 dc 3d 08 85 c4 3e
       0.70091116 1.1853883 0.10758837 0.38382745
0000a0 93 24 9c 3f 07 1e 12 c0 43 38 ab bf 10 02 2c 40
       1.2198662 -2.2830827 -1.3376545 2.687626
0000b0 73 ba 36 40 40 ef 73 3e 24 c1 85 3e 95 a4 04 be
       2.85513 0.23821735 0.26123917 -0.12953408
0000c0 4b df 0a c0 d2 1d c6 bf f0 f0 95 bf d9 e0 3f bf
       -2.1698787 -1.547785 -1.1714153 -0.74952465
0000d0 42 26 e8 3e d9 31 89 bd 6e 50 4f 3d 1b be 8d be
       0.45341688 -0.06698961 0.050613813 -0.276841
0000e0 4a 42 42 3e 9a 1d 76 3e af b0 4e 3e 3a 68 09 c0
       0.189706 0.2403473 0.20184587 -2.1469865
0000f0 43 87 5d 3f 09 bf 00 3f c6 56 31 bf 06 84 75 bd
       0.8653452 0.50291497 -0.6927303 -0.05994036
000100 a9 0e 8e bd 19 3c 68 3f 47 71 84 3e da 82 87 bf
       -0.0693639 0.907167 0.25867674 -1.0586808
000110 25 0c 73 3c 95 d4 82 bd 58 9b 79 3e 32 5a 9c 3e
       0.014834438 -0.06388203 0.24375665 0.30537564
000120 42 39 84 3e 82 b6 04 bf 6b 54 a4 3d 48 ad 31 3e
       0.25824934 -0.51840985 0.08023914 0.17351258
000130 d9 a8 a1 bf 74 22 5a c0 a2 aa 79 3d 22 f2 8b 3e
       -1.2629653 -3.4083529 0.060953744 0.2733317
000140 78 69 56 3e f3 3a 31 3f f9 e8 07 40 45 00 3b be
       0.2093867 0.69230574 2.1235945 -0.18261822
000150 4e a0 d8 bd fe 06 bb 3d 86 a8 ca be e0 3b 41 3f
       -0.10577451 0.09132193 -0.39581698 0.75481987
000160 64 58 38 be ef dc 57 be 02 29 6a bd 65 4a c2 bd
       -0.18002468 -0.21080373 -0.057168014 -0.09486846
000170 39 8c c2 3f 4d 88 01 be c1 98 72 bd 00 62 82 be
       1.5199043 -0.12649651 -0.05922771 -0.25465393
000180 c1 eb 6d be 49 eb 3d be 15 03 3b bd 7d 93 51 be
       -0.23234464 -0.18546785 -0.045657236 -0.20466419
000190 29 b6 0a be ec cd cc 3d 3e 1b 18 40 c6 d1 75 be
       -0.13546051 0.10000214 2.3766627 -0.24005803
0001a0 80 42 91 be 49 04 c2 bd 33 cb cd 3d 02 b0 af 3e
       -0.28371048 -0.094734736 0.10048523 0.3431397
0001b0 71 c2 99 3e ed 6c 02 bb 9a 39 5a 3e b2 0c 8b 3e
       0.3003116 -0.001990135 0.21311036 0.27158123
0001c0 9d 93 89 3e 1a 3e 46 bf 04 f2 93 3f 00 f1 bf bc
       0.26870432 -0.7743851 1.1558232 -0.023430347
0001d0 2c 1d b7 bd bf 7a ac 3d 76 3a c9 3f bb b8 03 3f
       -0.08941111 0.084218495 1.5720966 0.5145375
0001e0 00 fc 31 bd 3c 96 2a 3f 97 ec a5 3e c4 8d bc 3d
       -0.043453217 0.6663549 0.32407066 0.09206727
0001f0 e6 cb b9 3d 59 4e bf be f0 3d 85 3f 97 bb 98 be
       0.09072094 -0.37364462 1.0409527 -0.2983062
000200 95 27 26 3f 55 2c 71 3f 33 f1 34 3f d1 cf 5f 3e
       0.6490415 0.9420827 0.7068054 0.2185662
000210 7b 05 1a 3e ee 19 4d 40 6b a8 8d 3f d9 8d 2c 3f
       0.15041153 3.2047076 1.1067022 0.6740394
000220 68 14 02 3f ea 50 18 3e fd e5 f0 3c 79 28 0c 3f
       0.5081239 0.14874616 0.029406542 0.54749256
000230 09 71 2a 40 0f 19 89 bc 20 ad 97 bf f5 5f 3a be
       2.663149 -0.016735582 -1.1849709 -0.18200667
000240 6f 6d 94 be e2 4c 4a 40 14 e5 00 3f 7a e7 2a 3f
       -0.2898974 3.1609426 0.50349545 0.66759455
000250 5d cc 88 bf 37 32 a2 3e 1e 5c 8f bc 53 f4 d7 3e
       -1.0687367 0.31678936 -0.01749998 0.42178592
000260 08 ba 9a 3e 9a fa ab 3f 8a 9e 90 3f b3 40 91 be
       0.30220056 1.3435853 1.1298382 -0.28369674
000270 6a 0f 18 bf e4 46 fe 3e 13 dd 93 3f f8 c9 c2 bf
       -0.5939852 0.4966346 1.1551841 -1.5217886
000280 03 61 e3 3d fd 76 ab 3e 9d f8 87 bc dd 1c 98 3e
       0.11102488 0.33489218 -0.01659804 0.2970952
000290 a4 03 84 3e 6b 5c a1 3c 82 89 95 3f fe 34 66 3d
       0.25784028 0.019697389 1.1682589 0.05620288
0002a0 d6 15 c1 3e 24 89 19 bf 96 f7 22 3e 5e aa 7e 3e
       0.37711972 -0.59974885 0.15914759 0.24869677
0002b0 f4 ff 05 3f 8a 89 31 be 44 af db be ed c5 df 3f
       0.5234368 -0.17337623 -0.42907155 1.7482277
0002c0 dc d0 76 3e 30 42 8c 3e f3 4b 20 3f ed 6e 04 3f
       0.24103111 0.27394247 0.6261589 0.5173176
0002d0 81 1e 66 3e 77 7e f6 3e 2a b5 26 3f 17 a3 6b be
       0.22472574 0.4814336 0.65120184 -0.23011433
0002e0 7b 2d 54 be 00 1e 26 3d d4 c1 30 be 75 f2 2c c0
       -0.20720474 0.040555954 -0.1726144 -2.7022984
0002f0 9f 09 3a 3f f4 e6 0a 40 a7 74 f4 3e 25 81 25 3f
       0.7267093 2.1703463 0.4774525 0.64650184
000300 b3 d1 33 be 54 63 78 bd ca bd 2a 3e 07 13 98 bd
       -0.17560463 -0.0606416 0.16673961 -0.07425504
000310 20 cc 19 3f 3c ee 06 3f 69 fe 33 be 68 ca 32 3f
       0.60077095 0.52707267 -0.17577519 0.698401

arith.constant2 f4 [23]
000000 97 8f 4b bf 02 ca 7d bf 05 17 ac be 0f 28 98 be
       -0.79515976 -0.99136364 -0.33611313 -0.29718062
000010 4c 47 a5 3f 3c af fa be 68 74 0e be 70 6c a9 bc
       1.2912383 -0.48961818 -0.13911593 -0.02068159
000020 9a 93 83 3e c7 ae 2d 3f bf 80 8f bf b9 fb 09 3e
       0.2569855 0.67844814 -1.1211165 0.13474931
000030 f8 0f a7 bf ee a0 49 3f 26 44 cf 3e 4c 8b e3 bd
       -1.3051748 0.78761184 0.4048168 -0.11110553
000040 3b 8e e3 bf f8 c8 83 3f 1d 51 8a 3e 6d 87 94 3f
       -1.777778 1.0295706 0.2701501 1.1603829
000050 05 80 ec 3e c5 e9 bf be d3 df 00 40
       0.4619142 -0.3748304 2.0136611

arith.constant3 f4 [10]
000000 d6 34 af 3d 6d 3a f9 3c 4a bf cf 3f 08 69 86 3f
       0.085549995 0.030423367 1.6230252 1.0500803
000010 ea 7a a6 bf 8f 5f fc be a5 77 8d 3e 03 9c 26 3f
       -1.300626 -0.49291655 0.27630344 0.65081805
000020 c7 7c 82 3e e6 1a a4 3f
       0.25485823 1.2820709

sequential_6_1/dense_18_1/BiasAdd/ReadVariableOp f4 [20]
000000 54 e7 96 bf 5e 40 3d bd a9 a3 5c bf 8f 09 87 bf
       -1.1789346 -0.046203963 -0.86187226 -1.0549792
000010 b8 68 68 bf bc 0c e7 bf 91 c6 31 bf bd 49 dc bf
       -0.9078479 -1.8050761 -0.69443613 -1.7210003
000020 2a fe 8d be 8a cd 3b bf 88 16 7b bd fd 12 d2 3e
       -0.27732974 -0.733605 -0.061300784 0.41030112
000030 1e 02 7f bf 10 1f 6b bf a6 99 25 bf 7a 74 a3 be
       -0.99612606 -0.9184427 -0.64687574 -0.31924802
000040 36 26 c3 bf 3b f3 38 bf ca 44 63 bf 57 dd ec be
       -1.5246036 -0.7224614 -0.8877684 -0.4626262

sequential_6_1/dense_18_1/MatMul f4 [20, 42]
000000 ec 2f e6 bd f8 84 99 3e b3 4f a4 3d 00 8f 3b 3f
       -0.11239609 0.2998426 0.08023014 0.73265076
000010 85 0d 05 3d c9 96 9b 3e 94 7c b9 bc 0f b8 57 3e
       0.032483596 0.30388477 -0.022642411 0.21066307
000020 b6 1e 02 be 2c c7 1a 3e df 66 da bd 57 c8 b2 3d
       -0.12707028 0.1511504 -0.10664152 0.08729618
000030 1a 24 d7 3c 43 f4 c0 3d 1d ab ec 3b 5e c2 02 3d
       0.026262332 0.09421589 0.0072225467 0.031923644
000040 6e b5 1a bd 15 dc 16 c0 3d 5a 8b be ce 44 d2 3d
       -0.03777068 -2.3571827 -0.27217284 0.1026703
000050 b7 4f c5 3c 44 6c 86 3d fb 37 a4 3c 4c 7d dc 3a
       0.024085863 0.06563619 0.020046225 0.0016822009
000060 d2 9a a0 3c c2 a1 7c bd 7a 15 dd be 26 ec b4 3d
       0.019605074 -0.0616777 -0.43180448 0.08834104
000070 80 c4 83 3d 43 a9 56 3d 06 b1 aa 3d 2e 79 5f 3d
       0.06433964 0.052407514 0.08334546 0.054558925
000080 89 d9 4f 3d 65 74 d0 3c 57 90 97 be 4e da ac 3d
       0.050744567 0.025446126 -0.2960231 0.08440076
000090 1e cc e3 bc 6c 6f b4 3d ac 95 90 3c 46 ee 3c 3d
       -0.027807292 0.088103145 0.017649494 0.046125673
0000a0 d0 62 35 3d 00 83 59 3c 12 dd fd bd b4 06 81 3d
       0.044283688 0.013275862 -0.123956814 0.06300107
0000b0 b8 7c 8e 3e 10 a0 8b 3e 93 91 30 3f d5 4c 0c 3e
       0.27829528 0.27270555 0.6897213 0.13701184
0000c0 83 0c 65 3f 14 67 9f 3e f5 7e e8 3e 1e 94 b7 3e
       0.89472216 0.3113333 0.4540936 0.35855192
0000d0 4e 96 51 be 49 bd 66 3c 0f 32 ae 3e e7 aa ed 3d
       -0.20467493 0.014083215 0.34022567 0.11604863
0000e0 0a 9d f3 3e 8e b8 c2 3d 68 67 cd 3e ed d6 cd 3c
       0.4758075 0.09507857 0.40117955 0.025126899
0000f0 19 b3 fa be f5 f9 80 3d 59 f2 e4 bc ec 06 bd 3d
       -0.48964766 0.062976755 -0.027947592 0.09229836
000100 b4 78 9a 3d b4 d7 18 3e a2 b4 95 3c de 1c 21 3e
       0.075425535 0.14926034 0.018274609 0.15733668
000110 79 6c 70 bf d2 7e 85 3e 94 62 a0 bd 9f bb b8 3e
       -0.93915516 0.2607332 -0.07831302 0.36080644
000120 98 9f 99 3e 97 1c e9 3f 46 a3 a9 3e 72 15 98 3f
       0.30004573 1.821185 0.3313238 1.1881545
000130 fc 10 2e bf e4 8c 3e 3e 3d 44 ec be f7 14 2f 3c
       -0.67994666 0.18608433 -0.46145812 0.010686151
000140 ec d2 3c bf 31 4b 19 3e 10 fa 8b bf 6f 41 01 3f
       -0.7375934 0.1497009 -1.0935688 0.5049047
000150 a4 34 94 3e 80 fc 0e 3d 2d 32 9c 3e 41 78 a6 be
       0.28946412 0.03490877 0.3050703 -0.3251362
000160 d8 2d 8c 3e 22 d7 40 be 02 6e 97 3e f4 db 1e be
       0.27378726 -0.18832067 0.29576117 -0.15513593
000170 06 6d 6b 3e 2f 7b 0a be da 43 0f bd a6 b7 b7 bd
       0.22990808 -0.13523553 -0.034976818 -0.08970575
000180 f6 32 fb 3d f0 96 d5 ba 90 ed 6e 3e ca 16 08 3d
       0.122655794 -0.0016295593 0.2333281 0.03322486
000190 4f 7e 66 3e cd 98 cd bb 43 e1 d0 be 87 b5 e5 bd
       0.2250912 -0.006274319 -0.4079686 -0.11216264
0001a0 2f 69 2a 3a bd a4 fa bc c7 c0 e5 3d 4c a8 35 bc
       0.0006500659 -0.030596131 0.1121841 -0.011087488
0001b0 8a 03 21 3e a4 8e a2 3b ac 3c 03 bf 3b d3 48 be
       0.15724006 0.0049608517 -0.5126445 -0.19611828
0001c0 09 23 d2 bd a5 c2 a6 bd 33 23 00 3d e4 43 07 bd
       -0.10260589 -0.08142594 0.03128357 -0.03302373
0001d0 01 e3 60 3d 73 70 27 40 6d 73 cc be 2b 5a 62 be
       0.054903988 2.6162384 -0.39931813 -0.22104709
0001e0 63 de f6 bd 97 6a 4c be 78 46 cd bd 29 9b e1 bd
       -0.12054136 -0.19962536 -0.100232065 -0.110159226
0001f0 9a 55 f6 bd 14 7f e9 bd 4c 03 49 3e c0 57 dc bc
       -0.12028046 -0.11401191 0.19630164 -0.026897311
000200 79 48 41 3e 5b 4d 74 3f c9 8b 27 3d dd c6 d6 3e
       0.18875302 0.95430535 0.040904794 0.41948596
000210 28 6b 9d bc 36 47 9f 3e f1 60 85 bc dc 78 7a 3e
       -0.019216135 0.31109017 -0.016281577 0.24460167
000220 16 95 a1 bd a4 83 82 3d 4c 73 d7 3d b4 64 61 bd
       -0.07889764 0.06372765 0.10520038 -0.05502768
000230 c4 0d a5 3d 62 ed 1c bd e0 7b bf 3d 3d 12 fd 3c
       0.08059266 -0.038312323 0.09349799 0.030892486
000240 8e 2f c3 be 09 59 ca 3d bc 16 90 3d e4 3e f0 bc
       -0.3812222 0.09880263 0.07035586 -0.029326864
000250 21 92 bb 3d b2 1d 27 3d 9f 6f cb 3d 26 09 c4 3d
       0.09158731 0.040799804 0.099333994 0.095720574
000260 06 29 5a bf a5 4c e0 3d 31 d5 92 3d da b9 5a bc
       -0.85218847 0.10952119 0.07169569 -0.0133499745
000270 ea 21 99 3d bd 87 09 3e 6d eb e3 3d 94 45 25 c0
       0.07477172 0.13430686 0.11128888 -2.5823717
000280 93 aa 95 bf da 41 0c 3e 62 b2 cc bc 15 ed 6f 3d
       -1.169268 0.13696995 -0.024987403 0.05857571
000290 74 4c 35 3d bf 7c b1 3d 30 e0 91 3d c1 7c a1 3d
       0.044262365 0.086663716 0.071228385 0.07885123
0002a0 34 ce a4 3d d6 a8 9c 3e 0d 27 45 3e 11 d5 5a 3f
       0.080471426 0.30597562 0.19253178 0.85481364
0002b0 c4 7d 3d 3d 90 12 89 3e 31 a1 ee 3c aa 81 5e 3e
       0.046262518 0.26771975 0.029129596 0.2172915
0002c0 b2 7a d7 3c 25 33 36 3e f9 3a 14 bd 61 c2 21 3d
       0.026303623 0.17792948 -0.036189053 0.039492015
0002d0 ec a9 a2 3d 9d 86 c1 3b 62 25 86 3d 22 5f 4c bc
       0.07942566 0.0059059397 0.06550099 -0.012473853
0002e0 31 58 37 3d a2 5a c9 3c ac 56 13 be 69 a3 80 3d
       0.04476184 0.02457935 -0.14388531 0.06281168
0002f0 e0 bb 19 3d ba b7 b1 3c 28 8d 49 3d 34 e8 cd 3c
       0.037532687 0.021694053 0.049206883 0.025135137
000300 9c 5b 70 3d bd 84 ac 3c 15 5c 16 bf cb 6b c1 3d
       0.058681116 0.021059388 -0.58734256 0.09444388
000310 27 4f 0c 3d ee cb b9 3c 35 6d 8d 3d 16 3c 19 c0
       0.034255173 0.022680249 0.06905595 -2.3942924
000320 d9 83 c4 3d 61 f6 64 3d 7a be 2a bf 7a c4 0e 3e
       0.095954604 0.055899028 -0.66696894 0.13942137
000330 39 be 00 3d 65 6e df 3d 68 96 59 3d 73 4f cb 3d
       0.03143141 0.10909728 0.053121954 0.09927263
000340 80 fc 80 3d d0 61 ac 3d 78 76 a2 3d 7e a3 04 be
       0.062981606 0.08417094 0.07932752 -0.12952992
000350 a2 b5 e1 3c 1a 6a d0 3d 5e d0 00 3d 27 60 57 3c
       0.02755243 0.10176487 0.031448714 0.013145483
000360 16 fa 32 bc 4f fd e5 3c 77 76 ab bd 60 48 83 3c
       -0.010923883 0.028074889 -0.08372205 0.016025722
000370 6e 7f 79 bd 96 00 64 3c 18 9c d6 3a 24 0e b1 3c
       -0.060912542 0.013916155 0.0016373424 0.021613188
000380 d0 34 37 bd f1 ac e0 3b 7b f8 99 bd ef 0b 20 c0
       -0.0447281 0.0068565537 -0.07518097 -2.5007284
000390 bb a0 f0 bd 10 6e 78 bc 88 5e 06 3c 2b 29 93 3d
       -0.11749407 -0.01516296 0.008201249 0.071855865
0003a0 bd 4f 1d bc b0 c5 43 3e 62 3b b2 3c 3d a9 9b 3e
       -0.009601531 0.1911838 0.021756832 0.30402556
0003b0 ad b8 42 be 5b 4d c7 3b d4 d2 e6 bc 45 5e 83 3d
       -0.1901576 0.0060822195 -0.028176703 0.06414465
0003c0 10 b7 9d bc ac 96 ca 3c 03 97 6b bd 3b b2 b4 bc
       -0.01925233 0.02473005 -0.057517063 -0.022057643
0003d0 16 2c f7 bd 5d 46 7e 3c 82 19 f8 bb 9e 15 8d 3d
       -0.120689556 0.015519706 -0.0075714 0.06888889
0003e0 f5 ec a8 3d e2 4a 87 3d d0 44 64 3d 22 d0 e3 3c
       0.08248321 0.0660608 0.055729687 0.027809206
0003f0 9c 54 53 3e 30 e9 f4 3d ca 74 75 be fb e7 ba be
       0.20637745 0.119585395 -0.23970333 -0.36505112
